checkpoint.pth (torch_old, 45997 bytes, 6 tensors)

fc1.weight f4 [64, 37]
0.12197185 0.12581202 0.09469451 0.20533589 -0.0047752806 0.21199791 -0.64521784 -0.10422564
-0.17158589 -1.3394542 0.14352588 0.04610223 0.16705424 0.07320375 0.035409342 -0.029938446
0.14452796 0.07823284 0.09035328 0.043705102 -0.016896326 0.040970717 -0.021318568 0.0462791
-0.11586569 -0.104534104 0.006862264 0.038826156 0.022006365 0.00095103064 0.16753943 0.059814077
0.1575669 0.12335175 0.009320323 0.034993984 -0.0072021196 0.13122134 0.040864144 0.0039530452
0.01413523 -0.05557717 0.12147885 0.07866001 0.17579412 -0.11825725 0.025769372 0.084537834
0.09349958 -0.12749289 -0.15941912 -0.1003546 -0.24446955 0.13477755 0.09855843 0.2823118
0.054049134 0.1714751 0.053125076 -0.057227116 -0.22249499 -0.39184943 0.05678417 -0.04603876
0.14862967 -0.14835875 0.17787161 0.03183244 -0.06879707 -0.12080605 -0.06700584 0.08799497
0.031307075 -0.08160005 -0.12841763 -0.13158715 -0.06972545 0.1252658 -0.007731631 0.26172954
-0.20272414 -0.19305852 0.14251937 -0.8664359 0.17005228 -0.05289073 0.0715232 -0.085991696
-0.1351309 0.13820902 0.010144529 0.023619564 0.03965533 -0.06888295 -0.043042693 -0.014986156
0.1943577 -0.24475546 -0.08773319 -0.081557386 -0.18621975 0.13844742 -0.0050417585 -0.35460758
0.06419952 -0.07230532 -0.11828321 0.0025301198 -0.23652235 -0.1286709 0.12715936 0.13043433
-0.06830163 -0.08802097 -0.17156821 -0.009865351 0.12699005 -0.13178647 -0.15039407 -0.3494068
-0.83956105 -0.020550229 0.117356 -0.18131551 -0.1185557 -0.13138834 -0.06434485 -0.1189087
0.108013906 0.05572413 0.1438399 0.099571414 -0.018086279 0.025023246 -0.0014379589 0.010129867
-0.06313995 -0.15879554 0.034198202 -0.1157508 0.2585592 -0.10461983 0.09746264 -0.08471767
0.03236668 0.050660696 0.07546886 0.11251848 0.20661333 -0.08901172 -0.014564173 -0.12829173
0.021853393 -0.094853014 0.131704 -0.10897936 0.09585725 0.2062639 0.066268414 -0.07800338
0.09015085 0.11547642 -0.07818995 -0.22398967 0.080169015 -0.025828242 0.105969496 0.2189025
0.16861275 -0.00932282 -0.15454715 -0.22158329 -0.4450269 -0.21902229 0.093869396 -0.09212586
0.022949386 0.25997883 0.25121588 -0.17012495 -0.065593824 -0.10453994 -0.32693306 -0.062273607
0.043425053 0.11036335 0.0085086115 -0.009858662 0.025397673 0.14485928 0.0972259 0.06901842
-0.20714128 -0.11287001 -0.4499612 0.010962583 0.12801126 -0.047523983 -0.00423858 0.07398852
-0.071943276 -0.10003825 0.03918419 0.11554072 0.13825333 0.008250067 -0.082600005 -0.1715038
-0.047906924 0.13311489 0.1912883 0.049193293 -0.17228264 -0.1741884 -0.14627203 0.1992618
-0.05366063 0.06564068 -0.037062485 -0.24614605 -0.1258893 0.08142255 -0.08325837 -0.050604533
-0.091924794 0.058175445 0.14854623 0.008468322 -0.2718947 -0.09113423 0.16404814 0.8222584
0.05155897 0.09432288 0.07716133 0.097914375 0.024310075 -0.06422199 -0.12967284 -0.20991024
0.00958209 0.031688932 -0.05357934 -0.08769644 -0.0049296017 -0.12213118 -0.04112148 -0.06342261
0.06625583 0.12849344 -0.042582672 -0.12677063 -0.06262342 -0.12888466 -0.08182741 -0.04442267
00000000: 61cc f93d ded4 003e 32ef c13d 9243 523e
00000010: f579 9cbb fb15 593e ff2c 25bf 4174 d5bd
00000020: 36b4 2fbe 3c73 abbf 73f8 123e b1d5 3c3d
00000030: 4410 2b3e d9eb 953d 6309 113d 7941 f5bc
00000040: 23ff 133e 8a38 a03d 240b b93d 1f04 333d
00000050: 2a6a 8abc e9d0 273d 47a4 aebc 278f 3d3d
00000060: fe4a edbd fa15 d6bd d8dc e03b 2d08 1f3d
00000070: b146 b43c 964e 793a 758f 2b3e 9bff 743d
00000080: 3859 213e d89f fc3d 45b4 183c da55 0f3d
00000090: c2ff ebbb e35e 063e 2961 273d 8c88 813b
000000a0: 7497 673c e3a4 63bd e7c9 f83d 8018 a13d
000000b0: 6003 343e db30 f2bd 4a1a d33c 2c22 ad3d
000000c0: b57c bf3d 7f8d 02be c43e 23be b686 cdbd
000000d0: 3a56 7abe 2003 0a3e 01d9 c93d 2c8b 903e
000000e0: a062 5d3d 2b97 2f3e ae99 593d fb66 6abd
000000f0: bad5 63be 7da0 c8be 8596 683d 2493 3cbd
00000100: 6032 183e 5beb 17be fa23 363e bc62 023d
00000110: 7ae5 8cbd 2a69 f7bd 5c3a 89bd b536 b43d
00000120: d93b 003d ed1d a7bd e97f 03be c8be 06be
00000130: 37cc 8ebd ae45 003e 9f59 fdbb 6a01 863e
00000140: eb96 4fbe 22b1 45be 99f0 113e bece 5dbf
00000150: 2f22 2e3e f3a3 58bd c17a 923d 6a1c b0bd
00000160: c15f 0abe aa86 0d3e 3d35 263c d17d c13c
00000170: a16d 223d 8112 8dbd 894d 30bd 7e88 75bc
00000180: b405 473e 2da1 7abe 75ad b3bd 8f07 a7bd
00000190: 64b0 3ebe 29c5 0d3e 5635 a5bb 208f b5be
000001a0: 0a7b 833d d014 94bd 783e f2bd 5ed0 253b
000001b0: ea32 72be 4ec2 03be 1036 023e 9490 053e
000001c0: bae1 8bbd 5744 b4bd 94af 2fbe 48a2 21bc
000001d0: ae09 023e 08f3 06be e700 1abe 73e5 b2be
000001e0: 79ed 56bf f458 a8bc 5858 f03d c6aa 39be
000001f0: 55cd f2bd aa8a 06be 3cc7 83bd 6886 f3bd
00000200: 6536 dd3d fc3e 643d c44a 133e 19ec cb3d
00000210: ad29 94bc 8dfd cc3c e579 bcba bef7 253c
00000220: 854f 81bd 4c9b 22be 6a13 0c3d c10e edbd
00000230: df61 843e ec42 d6bd 7e9a c73d 7580 adbd
00000240: ed92 043d 9781 4f3d 6b8f 9a3d 1770 e63d
00000250: 7292 533e c74b b6bd 929e 6ebc e85e 03be
00000260: e305 b33c 4c42 c2bd 6add 063e 9230 dfbd
00000270: ce50 c43d d836 533e bcb7 873d 3cc0 9fbd
00000280: 02a1 b83d e77e ec3d 0d22 a0bd 8c5d 65be
00000290: a72f a43d c095 d3bc 8906 d93d fa27 603e
000002a0: d2a8 2c3e bebe 18bc 9c41 1ebe bbe6 62be
000002b0: 91da e3be 6147 60be 993e c03d 7cac bcbd
000002c0: 5a00 bc3c f21b 853e 5e9f 803e 3c35 2ebe
000002d0: 0e56 86bd 0919 d6bd c563 a7be 9c12 7fbd
000002e0: 78de 313d 2e06 e23d b467 0b3c 3a86 21bc
000002f0: c80e d03c fe55 143e 5f1e c73d 8859 8d3d
00000300: d81c 54be 6428 e7bd 5061 e6be 689c 333c
00000310: 6215 033e 82a8 42bd c9e3 8abb 4b87 973d
00000320: ff56 93bd dbe0 ccbd 9a7f 203d 9da0 ec3d
00000330: 4892 0d3e 4a2b 073c 312a a9bd b19e 2fbe
00000340: 0d3a 44bd 454f 083e 15e1 433e e87e 493d
00000350: dc6a 30be 725e 32be 56c8 15be 490b 4c3e
00000360: 40cb 5bbd 9f6e 863d d5ce 17bd b60d 7cbe
00000370: 20e9 00be dec0 a63d 5d83 aabd b346 4fbd
00000380: 1143 bcbd 6049 6e3d 811c 183e b8be 0a3c
00000390: c835 8bbe 95a4 babd 3cfc 273e 877f 523f
000003a0: 802f 533d 5b2c c13d c206 9e3d 5587 c83d
000003b0: ec25 c73c d286 83bd f5c8 04be b6f2 56be
000003c0: 33fe 1c3c 41cc 013d 0376 5bbd 319a b3bd
000003d0: 7f88 a1bb e91f fabd ff6e 28bd b7e3 81bd
000003e0: 23b1 873d c993 033e 2b6b 2ebd 29d0 01be
000003f0: b540 80bd 57fa 03be 2195 a7bd 8cf4 35bd

fc1.bias f4 [64]
-0.02736341 0.17434798 0.20003864 0.012281415 -0.11392102 -0.040821083 -0.040969037 -0.03288476
-0.18348308 0.10183681 -0.07409929 -0.04510587 -0.03806199 -0.021053582 -0.10752949 -0.04659327
0.048770566 0.10699451 0.19782743 -0.061747387 0.12289725 -0.03084804 -0.061710756 0.008553725
-0.030718591 -0.11481255 -0.08435831 -0.08456146 0.1596408 0.13980539 -0.059079275 -0.03738484
-0.09552942 -0.07991815 -0.05860853 0.1034651 0.101018265 0.024898542 0.11709227 -0.11941938
-0.12116574 0.075952746 -0.065999836 0.075764045 0.16130047 -0.089920126 -0.11905646 0.12039553
-0.20966198 0.17783217 -0.03714413 0.067552656 -0.08974417 -0.14102072 0.03371094 0.01608509
0.12181526 0.105922885 0.0258151 -0.002778064 0.10561233 -0.029502083 0.0638252 -0.16928856
00000000: 3b29 e0bc 4788 323e eed6 4c3e fd37 493c
00000010: 6c4f e9bd 0234 27bd 26cf 27bd 2cb2 06bd
00000020: fde2 3bbe d18f d03d 5ec1 97bd efc0 38bd
00000030: e4e6 1bbd 9078 acbc 6c38 dcbd 96d8 3ebd
00000040: a5c3 473d f01f db3d 4693 4a3e d4ea 7cbd
00000050: 8eb1 fb3d 07b5 fcbc 6bc4 7cbd ec24 0c3c
00000060: 8ea5 fbbc d822 ebbd 0dc4 acbd 8f2e adbd
00000070: e178 233e 2529 0f3e 1cfd 71bd d920 19bd
00000080: eea4 c3bd 21ac a3bd 7f0f 70bd 83e5 d33d
00000090: aae2 ce3d 07f8 cb3c 12ce ef3d 2692 f4bd
000000a0: be25 f8bd 1d8d 9b3d ec2a 87bd 2e2a 9b3d
000000b0: f32b 253e 0b28 b8bd e0d3 f3bd ee91 f63d
000000c0: a1b1 56be a319 363e 7124 18bd 0c59 8a3d
000000d0: cbcb b7bd bc67 10be 7c14 0a3d e1c4 833c
000000e0: 477a f93d 19ee d83d 307a d33c 2e10 36bb
000000f0: 474b d83d 5aae f1bc c9b6 823d fb59 2dbe

fc2.weight f4 [128, 64]
-0.0987746 0.12347518 -0.08906185 0.11881195 -0.012047274 0.011556193 0.12181383 0.015620813
0.035737783 0.008607757 0.014925215 -0.13434787 0.03260811 -0.065963306 -0.0065010563 0.058875788
0.057545215 0.04995837 0.04327078 0.13708481 0.10629758 0.06156216 -0.06763196 -0.0766895
0.06573214 0.051332686 0.060842138 -0.08056723 0.15462287 -0.025126671 0.0852194 0.16951126
-0.027317224 -0.01978069 0.122722335 0.016008904 0.04973703 -0.056017715 -0.019544596 -0.035250984
-0.04747386 0.07130014 -0.16785184 -0.122538805 0.13710737 0.08631944 0.025846448 -0.04144608
-0.11024311 -0.103296906 0.06475505 -0.070684455 -0.02647907 -0.0807894 -0.028208362 0.13359694
0.13380012 0.019253429 -0.08358707 0.14417265 -0.021868916 0.109560065 0.11855454 -0.024252899
0.14431545 0.0127194235 0.09573256 0.0003217716 0.079420835 -0.037066985 -0.0903601 -0.07538345
-0.19739039 0.007947886 -0.20165619 -0.031976137 0.018422185 -0.0005810715 -0.10690327 0.123486266
-0.029339373 0.08743861 0.11685654 -0.04898317 -0.027671095 0.079181366 -0.011873629 -0.013861151
0.09711115 -0.2144567 -0.051644087 0.1340027 -0.00035384358 0.1422509 0.0021268537 -0.084290795
0.13244313 0.099424794 0.013890584 -0.045101408 0.0034720905 -0.18109356 0.15169124 -0.02789433
0.02710526 0.11514481 -0.110742934 -0.062272064 0.09085812 0.0861103 -0.07534229 0.123323694
0.010769909 0.0055546123 -0.08402024 -0.03273966 -0.11723291 0.044467933 0.1589177 -0.020872038
0.17502226 -0.022205563 0.09653338 -0.07138369 -0.092597775 0.10288598 0.21329774 -0.020373125
0.061880216 0.08271774 0.03713015 0.03597826 -0.13529742 -0.012408872 0.023002535 -0.050008602
-0.01414459 0.085492335 0.001730031 0.11714326 -0.019870708 0.035336275 0.07170885 -0.078699045
-0.066309415 -0.16949022 -0.05700534 -0.013338172 0.058763944 -0.04760912 0.08336125 -0.04498767
-0.051467557 -0.28065524 0.012694413 0.008002095 0.25912118 0.0016049643 -0.110463105 -0.011974747
0.13000841 0.056513127 0.053017937 0.08314204 0.115014106 0.052365966 0.36279032 0.025475444
-0.10281744 -0.055916537 0.06166398 0.03390338 -0.01901072 0.06959963 -0.032413658 -0.031977434
-0.02760266 -0.010175146 0.2086016 0.051730704 0.17001009 -0.117530905 -0.077606425 -0.0035224094
-0.020759825 0.07244176 0.08080249 -0.2046397 -0.076665886 -0.105841815 -0.47846273 0.022503437
-0.21821244 0.10659362 -0.07641064 -0.028064344 0.1520828 -0.09042696 0.13948423 0.0050573363
0.11054569 0.08305735 -0.1403596 -0.12598236 0.23384614 -0.058110557 -0.07802065 0.025442155
-0.13357233 -0.27488902 0.062072784 0.06052692 -0.030328618 0.12559868 0.06255261 0.01597867
0.050332867 -0.13246872 0.11078064 5.0678434e-05 0.08027281 -0.27258682 -0.21579286 -0.037331782
0.06314109 -0.09659424 0.03617727 0.11625841 -0.10410978 0.0775251 -0.18166938 0.027638216
-0.0053224047 -0.046733066 -0.034515016 0.16031267 -0.029243391 0.034301847 -0.046907283 0.2260987
-0.0001035208 -0.124586865 0.02023442 0.06285375 -0.15205824 -0.012067178 0.00095120736 -0.101077214
-0.089632966 -0.1164258 -0.060463905 -0.0035372572 -0.14820988 0.10167797 -0.10171991 0.1049571
00000000: 564a cabd 8ee0 fc3d 0f66 b6bd ae53 f33d
00000010: ee61 45bc 3056 3d3c 8879 f93d 70ee 7f3c
00000020: c861 123d 8d07 0d3c e488 743c 7d92 09be
00000030: 1590 053d c517 87bd d006 d5bb bd27 713d
00000040: 88b4 6b3d 26a1 4c3d b43c 313d f65f 0c3e
00000050: 8cb2 d93d 9a28 7c3d a082 8abd 620f 9dbd
00000060: 929e 863d 3942 523d 9b35 793d 6f00 a5bd
00000070: 7555 1e3e 73d6 cdbc 8287 ae3d 5c94 2d3e
00000080: 5fc8 dfbc 1d0b a2bc d955 fb3d 1b25 833c
00000090: 0eb9 4b3d d572 65bd fd1b a0bc 5663 10bd
000000a0: f373 42bd cf05 923d 5ae1 2bbe a0f5 fabd
000000b0: e065 0c3e 3fc8 b03d eebb d33c 5dc3 29bd
000000c0: 24c7 e1bd 548d d3bd 4c9e 843d 03c3 90bd
000000d0: a2ea d8bc ea74 a5bd 3915 e7bc a3cd 083e
000000e0: e602 093e 5eb9 9d3c b32f abbd ffa1 133e
000000f0: 7126 b3bc 0761 e03d b9cc f23d 04ae c6bc
00000100: 6ec7 133e 2165 503c 6f0f c43d 74b3 a839
00000110: 64a7 a23d 8dd3 17bd b70e b9bd a362 9abd
00000120: b520 4abe da37 023c f67e 4ebe 69f9 02bd
00000130: 1fea 963c 0c53 18ba 1af0 dabd 5ee6 fc3d
00000140: 2059 f0bc 0413 b33d 7b52 ef3d 94a2 48bd
00000150: 7eae e2bc d729 a23d 9c89 42bc e219 63bc
00000160: 36e2 c63d 8a9a 5bbe c088 53bd 0138 093e
00000170: 1584 b9b9 38aa 113e af62 0b3b a7a0 acbd
00000180: 2c9f 073e 3a9f cb3d 5595 633c 41bc 38bd
00000190: 038c 633b 9770 39be f354 1b3e a682 e4bc
000001a0: da0b de3c 0bd1 eb3d 31cd e2bd fe10 7fbd
000001b0: d213 ba3d 995a b03d 0f4d 9abd 2291 fc3d
000001c0: 4674 303c 7703 b63b ce12 acbd 061a 06bd
000001d0: cf17 f0bd 0224 363d 52bb 223e d6fb aabc
000001e0: 0939 333e 71e8 b5bc 4bb3 c53d 9d31 92bd
000001f0: e7a3 bdbd e2b5 d23d b96a 5a3e 8ae5 a6bc
00000200: 1c76 7d3d eb67 a93d c915 183d f15d 133d
00000210: 688b 0abe 954e 4bbc d06f bc3c d2d5 4cbd
00000220: b6be 67bc 9b16 af3d 35c2 e23a cee8 ef3d
00000230: e5c7 a2bc c5bc 103d 17dc 923d f72c a1bd
00000240: 3bcd 87bd d88e 2dbe 6e7e 69bd 5988 5abc
00000250: 76b2 703d c801 43bd 4eb9 aa3d fe44 38bd
00000260: a5cf 52bd 0bb2 8fbe 3afc 4f3c 381b 033c
00000270: 88ab 843e aa5d d23a 7b3a e2bd bb31 44bc
00000280: ed20 053e 4f7a 673d 5629 593d 6046 aa3d
00000290: 848c eb3d b27d 563d a7bf b93e e1b1 d03c
000002a0: f391 d2bd bd08 65bd 5f93 7c3d 45de 0a3d
000002b0: 5fbc 9bbc 408a 8e3d 2fc4 04bd c5fa 02bd
000002c0: f91e e2bc a8b5 26bc a89b 553e 93e3 533d
000002d0: 2017 2e3e 0bb4 f0bd 1ef0 9ebd 39d8 66bb
000002e0: 8210 aabc 585c 943d c77b a53d 128d 51be
000002f0: 0103 9dbd 98c3 d8bd 11f9 f4be 2159 b83c
00000300: 1573 5fbe c14d da3d 2e7d 9cbd 32e7 e5bc
00000310: 98bb 1b3e c531 b9bd f4d4 0e3e 03b8 a53b
00000320: c765 e23d f919 aa3d 6dba 0fbe 8501 01be
00000330: 5d75 6f3e 5605 6ebd 4ac9 9fbd 116c d03c
00000340: 2fc7 08be 41be 8cbe 0840 7e3d 13eb 773d
00000350: b973 f8bc f19c 003e 951b 803d b3e5 823c
00000360: d629 4e3d e1a5 07be f6e0 e23d 8e8f 5438
00000370: 1266 a43d 8090 8bbe cef8 5cbe 36e9 18bd
00000380: 1e50 813d 33d3 c5bd 9e2e 143d e418 ee3d
00000390: 8237 d5bd 7bc5 9e3d 8a07 3abe 8a69 e23c
000003a0: 9167 aebb 2c6b 3fbd 9e5f 0dbd 0129 243e
000003b0: d68f efbc 1880 0c3d da21 40bd 6b86 673e
000003c0: 4e19 d9b8 6627 ffbd a8c2 a53c 78b9 803d
000003d0: 28b5 1bbe 6ab5 45bc 725a 793a 9201 cfbd
000003e0: 7d91 b7bd a670 eebd 00a9 77bd 54d1 67bb
000003f0: 55c4 17be 8a3c d03d 8752 d0bd bff3 d63d

fc2.bias f4 [128]
0.013114162 0.13366781 0.0039272616 -0.017633457 -0.11409574 0.10428665 0.071467556 -0.12955809
-0.073822364 0.068684205 -0.02886746 -0.09809697 0.006147425 0.11672926 0.001966994 -0.14282909
-0.072812185 0.097907215 -0.016306033 0.09382821 0.00804573 -0.07782549 -0.013526959 -0.06258883
-0.15032445 -0.076157145 -0.06888364 0.035858378 -0.095457226 0.032447964 0.11450785 0.1431487
0.03360806 0.011429484 0.006333394 0.019552236 -0.058309432 -0.1291015 -0.14867504 0.04696345
-0.019149002 0.008260358 0.04831535 0.056213085 0.054625474 0.059128087 0.12346409 0.10674788
0.08438926 -0.012403988 -0.09309509 0.20743462 0.06910785 -0.07412862 0.027551722 -0.10941414
-0.008272585 -0.11449608 0.07257634 -0.13881733 0.047679126 0.17089634 -0.044378635 0.037655074
0.06772728 -0.11215879 0.0796267 0.054749608 -0.03672368 -0.09523232 0.11225722 0.096244045
-0.14436853 -0.0968318 -0.05042629 0.09514925 0.058092576 -0.07140432 0.10389241 0.06466146
0.07809433 0.06411618 0.076110795 0.043843307 0.097963914 0.11900445 0.13807097 0.06931232
-0.03311018 -0.09833935 -0.046740707 -0.075154826 0.054772273 0.046234116 0.027680008 -0.08997547
-0.0007251357 -0.14330989 -0.07355741 -0.03134824 -0.049633015 0.026234271 0.1928044 0.12303179
0.033521686 -0.06744566 -0.05999294 -0.033811014 -0.069080666 -0.10481191 0.20323169 -0.079678155
-0.046076044 -0.041227333 0.07498897 0.07234981 0.0103241755 -0.06475201 0.060438644 0.029635964
0.0026217091 -0.037447855 -0.103567146 -0.032791864 0.16944994 0.082377166 -0.08674122 0.024504526
00000000: c8dc 563c 37e0 083e 42b0 803b 0a74 90bc
00000010: 07ab e9bd 3d94 d53d 955d 923d e0aa 04be
00000020: 2e30 97bd 4eaa 8c3d 747b ecbc 10e7 c8bd
00000030: 5770 c93b c00f ef3d afe8 003b ca41 12be
00000040: 8e1e 95bd 9483 c83d 3b94 85bc 0129 c03d
00000050: 3dd2 033c f862 9fbd 2ea0 5dbc 932e 80bd
00000060: a7ee 19be 47f8 9bbd de12 8dbd 3ce0 123d
00000070: 147f c3bd 28e8 043d 1783 ea3d 9395 123e
00000080: 9ba8 093d bb42 3b3c 5c88 cf3b 032c a03c
00000090: dfd5 6ebd 2f33 04be 453e 18be bf5c 403d
000000a0: 5ede 9cbc 7456 073c 51e6 453d b13f 663d
000000b0: f6be 5f3d 4b30 723d beda fc3d a29e da3d
000000c0: 47d4 ac3d 193a 4bbc a3a8 bebd be69 543e
000000d0: 6b88 8d3d bfd0 97bd 26b4 e13c 8514 e0bd
000000e0: bd89 07bc ec7c eabd e7a2 943d 2126 0ebe
000000f0: 304b 433d 73ff 2e3e 5fc6 35bd 353c 1a3d
00000100: 9ab4 8a3d 82b3 e5bd 5313 a33d 2041 603d
00000110: 926b 16bd 2a09 c3bd 1de7 e53d 991b c53d
00000120: 58d5 13be c04f c6bd cc8b 4ebd 9cdd c23d
00000130: 7bf2 6d3d 6e3c 92bd 8bc5 d43d 3a6d 843d
00000140: ecef 9f3d 584f 833d fadf 9b3d 0a95 333d
00000150: 4ea1 c83d 9bb8 f33d 7a62 0d3e 9ef3 8d3d
00000160: 8a9e 07bd 2466 c9bd 2f73 3fbd c6ea 99bd
00000170: e458 603d fc5f 3d3d 2fc1 e23c 0f45 b8bd
00000180: 0817 3eba d4bf 12be 44a5 96bd 0367 00bd
00000190: fd4b 4bbd 41e9 d63c 846e 453e 17f8 fb3d
000001a0: 094e 093d f320 8abd 28bb 75bd 6b7d 0abd
000001b0: 2a7a 8dbd a0a7 d6bd f81b 503e 4d2e a3bd
000001c0: 3cba 3cbd fedd 28bd d193 993d 232c 943d
000001d0: bb26 293c b49c 84bd 838e 773d 1fc7 f23c
000001e0: fbd0 2b3b ec62 19bd 031b d4bd c350 06bd
000001f0: 4984 2d3e 5cb5 a83d 61a5 b1bd b7bd c83c

fc3.weight f4 [4, 128]
0.036800858 0.12049935 0.14840464 0.42479968 -0.044977024 0.10064298 -0.0204774 -0.148011
-0.033290476 -0.10276372 -0.067851014 -0.016753003 0.19669542 0.24764161 0.19562109 -0.17256002
0.38744062 -0.0012162694 0.067233376 0.071103066 -0.3084676 -0.060413267 -0.27582237 -0.09127514
-0.11672165 0.13671559 0.11847112 0.13266361 0.036067843 0.008025153 0.09752956 -0.044978738
0.09074658 -0.14340612 -0.036884744 -0.022446813 0.13040426 0.07561682 -0.16258663 0.049635064
0.040362097 -0.0018042261 -0.019852897 -0.1594781 0.11651709 0.21136406 0.23782422 0.068187185
0.009286971 0.12339489 0.2630304 0.03799088 0.035705138 0.20671876 0.029515624 0.09847893
-0.14821038 0.14154364 -0.0069358023 0.191386 0.0028987173 0.08904801 0.16180901 0.051442686
-0.044005778 -0.115869574 0.20426048 0.018340725 -0.1720795 -0.036006514 -0.06010332 0.04252297
-0.21390568 0.08679115 -0.08240863 -0.02684782 0.22246929 -0.081579804 0.13582954 0.1344424
0.14725317 0.16110341 0.12449127 0.21697411 0.27947217 0.1836816 -0.056255415 -0.064646475
-0.108271234 0.066327356 -0.0520171 0.04249292 0.0407186 -0.04866892 -0.018996777 -0.11992465
0.090268835 0.05407202 -0.058501977 -0.072439976 0.13810833 0.06472287 0.083115496 0.10273489
-0.032967236 0.021350862 -0.33976057 0.118579954 -0.06583197 0.20596169 0.0724626 0.34302706
-0.07161787 0.15291366 -0.004324616 0.107085936 0.11333782 0.03893174 -0.14259899 0.0017420222
-0.059267532 -0.21069303 -0.24250753 -0.108424336 0.20528057 0.19768314 -0.21518564 0.30021733
0.16380382 -0.008191365 0.10863569 0.13219994 -0.116995886 -0.05723129 -0.032979082 0.031068757
-0.0018480687 0.0994754 0.078718945 0.007022908 -0.19743396 0.1872869 0.34968877 -0.17952934
0.2578113 0.07962437 -0.10242408 0.30998042 -0.22452751 -0.15585274 -0.5608519 -0.048106417
-0.08612384 0.041752335 0.010291528 0.18772505 -0.08221317 0.14473508 0.11374846 0.06852401
0.07238858 -0.071790695 -0.1247568 0.13896188 0.00353592 -0.041704275 -0.06379726 -0.06720909
0.09214436 0.07408047 0.10608917 0.043018065 0.046608645 0.2088007 0.04472465 0.10362
0.025594005 0.009421769 0.22417535 0.053591974 -0.07048174 -0.09908898 0.079674765 -0.15938349
-0.037329786 -0.34974295 -0.1059932 0.3853051 0.09348023 0.13872576 0.21779224 0.04996105
0.08027719 0.009316989 0.2241113 -2.8798982e-05 -0.120716825 -0.070622854 0.059865672 0.10415905
-0.20841756 -0.10118668 -0.031631533 0.118237 0.012204526 -0.06883085 0.1174367 -0.03469898
0.16577813 0.24470039 0.011433442 0.22737868 0.049423352 0.10774156 -0.049764574 0.13869418
-0.02360846 -0.07426751 0.0928716 0.0123898005 0.057687547 -0.13858697 0.102868944 -0.02245161
-0.16849644 -0.17073713 -0.1360993 -0.05455325 0.024063181 0.119716406 0.032829378 0.041138634
0.2534623 0.042195246 -0.5089577 0.10312074 -0.090235524 0.34527647 0.017121661 0.2505487
-0.14809135 0.20744567 0.015687471 0.046020437 0.3729509 -0.18175274 0.0014219705 0.16636927
0.10814623 0.14261076 -0.27302706 0.06073862 0.11722923 -0.12620088 -0.0367806 0.18681832
00000000: 7fbc 163d 5dc8 f63d 63f7 173e 587f d93e
00000010: d439 38bd e81d ce3d 38c0 a7bc 3290 17be
00000020: 985b 08bd c975 d2bd 79f5 8abd 983d 89bc
00000030: 866a 493e c395 7d3e e550 483e 93b3 30be
00000040: 9e5e c63e 3b6b 9fba a7b1 893d 7c9e 913d
00000050: 77ef 9dbe e773 77bd 9738 8dbe 76ee babd
00000060: c30b efbd 2cff 0b3e fda0 f23d f8d8 073e
00000070: e0bb 133d ee7b 033c 94bd c73d a03b 38bd
00000080: 58d9 b93d 0ed9 12be 7514 17bd 61e2 b7bc
00000090: b288 053e fedc 9a3d 1c7d 26be 234e 4b3d
000000a0: ba52 253d c87b ecba 8ba2 a2bc 3a4e 23be
000000b0: 83a0 ee3d d26f 583e 3188 733e b9a5 8b3d
000000c0: 6128 183c 76b6 fc3d ecab 863e 539c 1b3d
000000d0: 8d3f 123d 15ae 533e c0ca f13c 52af c93d
000000e0: 76c4 17be d1f0 103e ba45 e3bb b1fa 433e
000000f0: 68f8 3d3b ce5e b63d 43b1 253e 91b5 523d
00000100: 673f 34bd 074d edbd a929 513e 4a3f 963c
00000110: 9c35 30be 917b 13bd e62e 76bd 912c 2e3d
00000120: 170a 5bbe 8fbf b13d dbc5 a8bd f6ef dbbc
00000130: fdce 633e 5013 a7bd e616 0b3e 45ab 093e
00000140: 89c9 163e 4bf8 243e 47f5 fe3d 762e 5e3e
00000150: fa16 8f3e 0817 3c3e 146c 66bd 5f65 84bd
00000160: 4fbd ddbd a3d6 873d e20f 55bd 0e0d 2e3d
00000170: 8cc8 263d 1059 47bd 219f 9bbc 0e9b f5bd
00000180: dede b83d 9f7a 5d3d c59f 6fbd 695b 94bd
00000190: 456c 0d3e 6d8d 843d 7538 aa3d ac66 d23d
000001a0: a708 07bd 01e8 ae3c 19f5 adbe 0cda f23d
000001b0: e9d2 86bd 9fe7 523e 4667 943d 3ea1 af3e
000001c0: 64ac 92bd 6695 1c3e 82b5 8dbb df4f db3d
000001d0: a91d e83d e376 1f3d 7805 12be 9154 e43a
000001e0: 83c2 72bd eabf 57be e553 78be 940d debd
000001f0: 1235 523e 736d 4a3e a059 5cbe 16b6 993e
00000200: 30bc 273e 1335 06bc 637c de3d 6c5f 073e
00000210: 8a9b efbd 5b6b 6abd 1315 07bd e883 fe3c
00000220: e53a f2ba c2b9 cb3d 6637 a13d 6c20 e63b
00000230: 212c 4abe 23c8 3f3e 680a b33e 8ad6 37be
00000240: d8ff 833e 1a12 a33d b7c3 d1bd c1b5 9e3e
00000250: 8aea 65be dc97 1fbe fd93 0fbf 3c0b 45bd
00000260: b261 b0bd 7f04 2b3d cc9d 283c ff3a 403e
00000270: 615f a8bd 6f35 143e f4f4 e83d 5156 8c3d
00000280: 7740 943d 0007 93bd 7e80 ffbd 064c 0e3e
00000290: e5ba 673b 1ad2 2abd 23a8 82bd eba4 89bd
000002a0: 2fb6 bc3d 80b7 973d 4745 d93d b633 303d
000002b0: b5e8 3e3d dacf 553e 3231 373d b936 d43d
000002c0: 85aa d13c c35d 1a3c 398e 653e 4283 5b3d
000002d0: bb58 90bd 2aef cabd 862c a33d 6d35 23be
000002e0: 1ee7 18bd 8211 b3be f612 d9bd b646 c53e
000002f0: 9072 bf3d 200e 0e3e ee04 5f3e f5a3 4c3d
00000300: 5e68 a43d 49a6 183c 6f7d 653e 5895 f1b7
00000310: 623a f7bd b7a2 90bd b535 753d 5751 d53d
00000320: 6a6b 55be f63a cfbd 1190 01bd 3e26 f23d
00000330: 7ef5 473c 30f7 8cbd a782 f03d 8520 0ebd
00000340: bec1 293e bd92 7a3e 5553 3b3c f5d5 683e
00000350: 2470 4a3d 9ba7 dc3d f0d5 4bbd d905 0e3e
00000360: 8766 c1bc 9019 98bd 7733 be3d 97fe 4a3c
00000370: c749 6c3d bee9 0dbe f4ac d23d 70ec b7bc
00000380: 558a 2cbe b7d5 2ebe 9d5d 0bbe 3b73 5fbd
00000390: 2620 c53c e02d f53d 1978 063d fc80 283d
000003a0: d0c5 813e ecd4 2c3d 0d4b 02bf f730 d33d
000003b0: 67cd b8bd 14c8 b03e ba42 8c3c eb47 803e
000003c0: 42a5 17be a36c 543e 0383 803c ed7f 3c3d
000003d0: 6cf3 be3e 641d 3abe 6a61 ba3a b55c 2a3e
000003e0: c57b dd3d 8e08 123e 34ca 8bbe 0fc9 783d
000003f0: e115 f03d ce3a 01be 41a7 16bd 4d4d 3f3e

fc3.bias f4 [4]
0.124563746 0.09323301 0.032768242 0.06686193
00000000: 471b ff3d f3f0 be3d fe37 063d e8ee 883d
